--- Model Architecture ---
CLIPModel(
  (text_model): CLIPTextTransformer(
    (embeddings): CLIPTextEmbeddings(
      (token_embedding): Embedding(49408, 768)
      (position_embedding): Embedding(77, 768)
    )
    (encoder): CLIPEncoder(
      (layers): ModuleList(
        (0-11): 12 x CLIPEncoderLayer(
          (self_attn): CLIPAttention(
            (k_proj): Linear(in_features=768, out_features=768, bias=True)
            (v_proj): Linear(in_features=768, out_features=768, bias=True)
            (q_proj): Linear(in_features=768, out_features=768, bias=True)
            (out_proj): Linear(in_features=768, out_features=768, bias=True)
          )
          (layer_norm1): LayerNorm((768,), eps=1e-05, elementwise_affine=True)
          (mlp): CLIPMLP(
            (activation_fn): QuickGELUActivation()
            (fc1): Linear(in_features=768, out_features=3072, bias=True)
            (fc2): Linear(in_features=3072, out_features=768, bias=True)
          )
          (layer_norm2): LayerNorm((768,), eps=1e-05, elementwise_affine=True)
        )
      )
    )
    (final_layer_norm): LayerNorm((768,), eps=1e-05, elementwise_affine=True)
  )
  (vision_model): CLIPVisionTransformer(
    (embeddings): CLIPVisionEmbeddings(
      (patch_embedding): Conv2d(3, 1024, kernel_size=(14, 14), stride=(14, 14), bias=False)
      (position_embedding): Embedding(577, 1024)
    )
    (pre_layrnorm): LayerNorm((1024,), eps=1e-05, elementwise_affine=True)
    (encoder): CLIPEncoder(
      (layers): ModuleList(
        (0-23): 24 x CLIPEncoderLayer(
          (self_attn): CLIPAttention(
            (k_proj): Linear(in_features=1024, out_features=1024, bias=True)
            (v_proj): Linear(in_features=1024, out_features=1024, bias=True)
            (q_proj): Linear(in_features=1024, out_features=1024, bias=True)
            (out_proj): Linear(in_features=1024, out_features=1024, bias=True)
          )
          (layer_norm1): LayerNorm((1024,), eps=1e-05, elementwise_affine=True)
          (mlp): CLIPMLP(
            (activation_fn): QuickGELUActivation()
            (fc1): Linear(in_features=1024, out_features=4096, bias=True)
            (fc2): Linear(in_features=4096, out_features=1024, bias=True)
          )
          (layer_norm2): LayerNorm((1024,), eps=1e-05, elementwise_affine=True)
        )
      )
    )
    (post_layernorm): LayerNorm((1024,), eps=1e-05, elementwise_affine=True)
  )
  (visual_projection): Linear(in_features=1024, out_features=768, bias=False)
  (text_projection): Linear(in_features=768, out_features=768, bias=False)
)

--- Model Configuration ---
CLIPConfig {
  "architectures": [
    "CLIPModel"
  ],
  "dtype": "float32",
  "initializer_factor": 1.0,
  "logit_scale_init_value": 2.6592,
  "model_type": "clip",
  "projection_dim": 768,
  "text_config": {
    "attention_dropout": 0.0,
    "dropout": 0.0,
    "dtype": "float32",
    "hidden_act": "quick_gelu",
    "hidden_size": 768,
…
  "transformers_version": "4.57.3",
  "vision_config": {
    "attention_dropout": 0.0,
    "dropout": 0.0,
    "dtype": "float32",
    "hidden_act": "quick_gelu",
    "hidden_size": 1024,
    "image_size": 336,
    "initializer_factor": 1.0,
    "initializer_range": 0.02,
    "intermediate_size": 4096,
    "layer_norm_eps": 1e-05,
    "model_type": "clip_vision_model",
    "num_attention_heads": 16,
    "num_channels": 3,
    "num_hidden_layers": 24,
    "patch_size": 14,
    "projection_dim": 768
  }
}


--- Text Model Sub-Architecture ---
CLIPTextTransformer(
  (embeddings): CLIPTextEmbeddings(
    (token_embedding): Embedding(49408, 768)
    (position_embedding): Embedding(77, 768)
  )
  (encoder): CLIPEncoder(
    (layers): ModuleList(
      (0-11): 12 x CLIPEncoderLayer(
        (self_attn): CLIPAttention(
          (k_proj): Linear(in_features=768, out_features=768, bias=True)
          (v_proj): Linear(in_features=768, out_features=768, bias=True)
          (q_proj): Linear(in_features=768, out_features=768, bias=True)
          (out_proj): Linear(in_features=768, out_features=768, bias=True)
        )
        (layer_norm1): LayerNorm((768,), eps=1e-05, elementwise_affine=True)
        (mlp): CLIPMLP(
          (activation_fn): QuickGELUActivation()
          (fc1): Linear(in_features=768, out_features=3072, bias=True)
          (fc2): Linear(in_features=3072, out_features=768, bias=True)
        )
        (layer_norm2): LayerNorm((768,), eps=1e-05, elementwise_affine=True)
      )
    )
  )
  (final_layer_norm): LayerNorm((768,), eps=1e-05, elementwise_affine=True)
)

--- Vision Model Sub-Architecture ---
CLIPVisionTransformer(
  (embeddings): CLIPVisionEmbeddings(
    (patch_embedding): Conv2d(3, 1024, kernel_size=(14, 14), stride=(14, 14), bias=False)
    (position_embedding): Embedding(577, 1024)
  )
  (pre_layrnorm): LayerNorm((1024,), eps=1e-05, elementwise_affine=True)
  (encoder): CLIPEncoder(
    (layers): ModuleList(
      (0-23): 24 x CLIPEncoderLayer(
        (self_attn): CLIPAttention(
          (k_proj): Linear(in_features=1024, out_features=1024, bias=True)
          (v_proj): Linear(in_features=1024, out_features=1024, bias=True)
          (q_proj): Linear(in_features=1024, out_features=1024, bias=True)
          (out_proj): Linear(in_features=1024, out_features=1024, bias=True)
        )
        (layer_norm1): LayerNorm((1024,), eps=1e-05, elementwise_affine=True)
        (mlp): CLIPMLP(
          (activation_fn): QuickGELUActivation()
          (fc1): Linear(in_features=1024, out_features=4096, bias=True)
          (fc2): Linear(in_features=4096, out_features=1024, bias=True)
        )
        (layer_norm2): LayerNorm((1024,), eps=1e-05, elementwise_affine=True)
      )
    )
  )
  (post_layernorm): LayerNorm((1024,), eps=1e-05, elementwise_affine=True)
)
